…
05/26/2024 12:40:49 - INFO - llmtuner.model.utils - Provided path (/home/student2021/srcao/base-model/llama2-7b) does not contain value head weights.
05/26/2024 12:40:49 - INFO - llmtuner.model.utils - Ignore these messages if you are not resuming the training of a value head model.
05/26/2024 12:40:49 - INFO - llmtuner.model.loader - trainable params: 4198401 || all params: 6742614017 || trainable%: 0.0623
AutoModelForCausalLMWithValueHead(
  (pretrained_model): PeftModelForCausalLM(
    (base_model): LoraModel(
      (model): LlamaForCausalLM(
        (model): LlamaModel(
          (embed_tokens): Embedding(32000, 4096)
          (layers): ModuleList(
            (0-31): 32 x LlamaDecoderLayer(
              (self_attn): LlamaAttention(
                (q_proj): lora.Linear(
                  (base_layer): Linear(in_features=4096, out_features=4096, bias=False)
                  (lora_dropout): ModuleDict(
                    (default): Dropout(p=0.05, inplace=False)
                  )
                  (lora_A): ModuleDict(
                    (default): Linear(in_features=4096, out_features=8, bias=False)
                  )
                  (lora_B): ModuleDict(
                    (default): Linear(in_features=8, out_features=4096, bias=False)
                  )
                  (lora_embedding_A): ParameterDict()
                  (lora_embedding_B): ParameterDict()
                )
                (k_proj): Linear(in_features=4096, out_features=4096, bias=False)
                (v_proj): lora.Linear(
                  (base_layer): Linear(in_features=4096, out_features=4096, bias=False)
                  (lora_dropout): ModuleDict(
                    (default): Dropout(p=0.05, inplace=False)
                  )
                  (lora_A): ModuleDict(
                    (default): Linear(in_features=4096, out_features=8, bias=False)
                  )
                  (lora_B): ModuleDict(
                    (default): Linear(in_features=8, out_features=4096, bias=False)
                  )
                  (lora_embedding_A): ParameterDict()
                  (lora_embedding_B): ParameterDict()
                )
                (o_proj): Linear(in_features=4096, out_features=4096, bias=False)
                (rotary_emb): LlamaRotaryEmbedding()
              )
              (mlp): LlamaMLP(
                (gate_proj): Linear(in_features=4096, out_features=11008, bias=False)
                (up_proj): Linear(in_features=4096, out_features=11008, bias=False)
                (down_proj): Linear(in_features=11008, out_features=4096, bias=False)
                (act_fn): SiLU()
              )
              (input_layernorm): LlamaRMSNorm()
              (post_attention_layernorm): LlamaRMSNorm()
            )
          )
          (norm): LlamaRMSNorm()
        )
        (lm_head): Linear(in_features=4096, out_features=32000, bias=False)
      )
    )
  )
  (v_head): ValueHead(
    (dropout): Dropout(p=0.1, inplace=False)
    (summary): Linear(in_features=4096, out_features=1, bias=True)
    (flatten): Flatten(start_dim=1, end_dim=-1)
  )
)
05/26/2024 12:40:49 - INFO - llmtuner.data.template - Add pad token: </s>
05/26/2024 12:40:49 - INFO - llmtuner.model.utils - Failed to load value_head.safetensors: /home/student2021/srcao/base-model/llama2-7b does not appear to have a file named value_head.safetensors. Checkout 'https://huggingface.co//home/student2021/srcao/base-model/llama2-7b/tree/None' for available files.
…
05/26/2024 12:40:49 - INFO - llmtuner.model.utils - Provided path (/home/student2021/srcao/base-model/llama2-7b) does not contain value head weights.
05/26/2024 12:40:49 - INFO - llmtuner.model.utils - Ignore these messages if you are not resuming the training of a value head model.
05/26/2024 12:40:49 - INFO - llmtuner.model.loader - trainable params: 4198401 || all params: 6742614017 || trainable%: 0.0623
AutoModelForCausalLMWithValueHead(
  (pretrained_model): PeftModelForCausalLM(
    (base_model): LoraModel(
      (model): LlamaForCausalLM(
        (model): LlamaModel(
          (embed_tokens): Embedding(32000, 4096)
          (layers): ModuleList(
            (0-31): 32 x LlamaDecoderLayer(
              (self_attn): LlamaAttention(
                (q_proj): lora.Linear(
                  (base_layer): Linear(in_features=4096, out_features=4096, bias=False)
                  (lora_dropout): ModuleDict(
                    (default): Dropout(p=0.05, inplace=False)
                  )
                  (lora_A): ModuleDict(
                    (default): Linear(in_features=4096, out_features=8, bias=False)
                  )
                  (lora_B): ModuleDict(
                    (default): Linear(in_features=8, out_features=4096, bias=False)
                  )
                  (lora_embedding_A): ParameterDict()
                  (lora_embedding_B): ParameterDict()
                )
                (k_proj): Linear(in_features=4096, out_features=4096, bias=False)
                (v_proj): lora.Linear(
                  (base_layer): Linear(in_features=4096, out_features=4096, bias=False)
                  (lora_dropout): ModuleDict(
                    (default): Dropout(p=0.05, inplace=False)
                  )
                  (lora_A): ModuleDict(
                    (default): Linear(in_features=4096, out_features=8, bias=False)
                  )
                  (lora_B): ModuleDict(
                    (default): Linear(in_features=8, out_features=4096, bias=False)
                  )
                  (lora_embedding_A): ParameterDict()
                  (lora_embedding_B): ParameterDict()
                )
                (o_proj): Linear(in_features=4096, out_features=4096, bias=False)
                (rotary_emb): LlamaRotaryEmbedding()
              )
              (mlp): LlamaMLP(
                (gate_proj): Linear(in_features=4096, out_features=11008, bias=False)
                (up_proj): Linear(in_features=4096, out_features=11008, bias=False)
                (down_proj): Linear(in_features=11008, out_features=4096, bias=False)
                (act_fn): SiLU()
              )
              (input_layernorm): LlamaRMSNorm()
              (post_attention_layernorm): LlamaRMSNorm()
            )
          )
          (norm): LlamaRMSNorm()
        )
        (lm_head): Linear(in_features=4096, out_features=32000, bias=False)
      )
    )
  )
  (v_head): ValueHead(
    (dropout): Dropout(p=0.1, inplace=False)
    (summary): Linear(in_features=4096, out_features=1, bias=True)
    (flatten): Flatten(start_dim=1, end_dim=-1)
  )
)
05/26/2024 12:40:49 - INFO - llmtuner.data.template - Add pad token: </s>
05/26/2024 12:40:49 - INFO - llmtuner.model.loader - trainable params: 4198401 || all params: 6742614017 || trainable%: 0.0623
AutoModelForCausalLMWithValueHead(
  (pretrained_model): PeftModelForCausalLM(
    (base_model): LoraModel(
      (model): LlamaForCausalLM(
        (model): LlamaModel(
          (embed_tokens): Embedding(32000, 4096)
          (layers): ModuleList(
            (0-31): 32 x LlamaDecoderLayer(
              (self_attn): LlamaAttention(
                (q_proj): lora.Linear(
                  (base_layer): Linear(in_features=4096, out_features=4096, bias=False)
                  (lora_dropout): ModuleDict(
                    (default): Dropout(p=0.05, inplace=False)
                  )
                  (lora_A): ModuleDict(
                    (default): Linear(in_features=4096, out_features=8, bias=False)
                  )
                  (lora_B): ModuleDict(
                    (default): Linear(in_features=8, out_features=4096, bias=False)
                  )
                  (lora_embedding_A): ParameterDict()
                  (lora_embedding_B): ParameterDict()
                )
                (k_proj): Linear(in_features=4096, out_features=4096, bias=False)
                (v_proj): lora.Linear(
                  (base_layer): Linear(in_features=4096, out_features=4096, bias=False)
                  (lora_dropout): ModuleDict(
                    (default): Dropout(p=0.05, inplace=False)
                  )
                  (lora_A): ModuleDict(
                    (default): Linear(in_features=4096, out_features=8, bias=False)
                  )
                  (lora_B): ModuleDict(
                    (default): Linear(in_features=8, out_features=4096, bias=False)
                  )
                  (lora_embedding_A): ParameterDict()
                  (lora_embedding_B): ParameterDict()
                )
                (o_proj): Linear(in_features=4096, out_features=4096, bias=False)
                (rotary_emb): LlamaRotaryEmbedding()
              )
              (mlp): LlamaMLP(
                (gate_proj): Linear(in_features=4096, out_features=11008, bias=False)
                (up_proj): Linear(in_features=4096, out_features=11008, bias=False)
                (down_proj): Linear(in_features=11008, out_features=4096, bias=False)
                (act_fn): SiLU()
              )
              (input_layernorm): LlamaRMSNorm()
              (post_attention_layernorm): LlamaRMSNorm()
            )
          )
          (norm): LlamaRMSNorm()
        )
        (lm_head): Linear(in_features=4096, out_features=32000, bias=False)
      )
    )
  )
  (v_head): ValueHead(
    (dropout): Dropout(p=0.1, inplace=False)
    (summary): Linear(in_features=4096, out_features=1, bias=True)
    (flatten): Flatten(start_dim=1, end_dim=-1)
  )
)
05/26/2024 12:40:49 - INFO - llmtuner.data.template - Add pad token: </s>
05/26/2024 12:40:49 - INFO - llmtuner.model.utils - Failed to load value_head.safetensors: /home/student2021/srcao/base-model/llama2-7b does not appear to have a file named value_head.safetensors. Checkout 'https://huggingface.co//home/student2021/srcao/base-model/llama2-7b/tree/None' for available files.
…
